demo-vue/app/models/mask_custom_model.pt (torch, 259370 bytes, 9 tensors)

weight f4 [6, 3, 5, 5]
0.09724813 0.11046537 -0.027573278 0.015334155 -0.081662804 -0.0912223 -0.13432056 0.06130306
-0.009616654 0.05809481 -0.0138087375 -0.08442144 -0.049732868 -0.013595469 0.024665989 0.0004209282
-0.10573204 -0.098872766 -0.1350644 0.0027044374 -0.042840194 -0.12242873 -0.018537289 -0.01616208
-0.021490915 0.089305036 -0.036499422 0.06717136 -0.030625971 -0.017349001 0.05474049 0.1272653
0.012424249 -0.045182873 -0.060792774 0.10616037 -0.056068286 -0.03354193 0.13504788 0.120111495
0.042288344 0.04669121 0.11417706 -0.06453104 0.07699705 -0.005981067 -0.0058777584 -0.00811557
-0.031243263 0.026702289 0.0595012 0.07215258 0.0095491605 -0.044102505 0.040726915 0.120882995
0.13497081 0.16418467 0.067822754 -0.061960537 0.06057155 0.15644361 0.14447768 0.11252308
-0.008082522 -0.06493782 0.04476873 0.10656936 0.023309616 0.031700388 0.09067584 -0.0850005
0.047375366 -0.06706582 -0.09832074 -0.040282108 -0.08180785 0.024306454 -0.1259982 -0.030942187
-0.08243666 0.06268171 -0.150462 0.020232368 -0.1251473 -0.10667772 -0.012713791 -0.117674634
-0.023352249 -0.14954537 -0.018196665 -0.15011656 -0.14441548 -0.10035523 -0.05078371 -0.1040393
-0.11302617 -0.12679239 -0.10377813 -0.14157146 0.11019255 0.16099451 0.1469754 -0.050302204
0.16697273 0.044035792 0.12161335 0.07714716 0.059977565 0.13925922 -0.034398533 0.07876677
-0.06980764 0.033090528 0.048645068 -0.07313824 0.04979162 -0.01539532 -0.04102368 -0.02496159
-0.06085913 0.010531971 0.106414855 -0.05133494 -0.036696333 -0.0036695732 -0.054475248 0.1559209
0.08646255 0.063261844 0.12584175 0.10856244 0.011877161 0.15709427 0.009933496 0.01665031
0.123821065 0.09824637 -0.057091236 0.009484063 -0.0065351236 0.07764823 0.10918213 -0.067034245
0.12397928 -0.07004539 0.07569627 -0.024510404 -0.09168301 0.06333819 -0.08454273 -0.09878743
0.024469914 0.06382314 0.050199855 -0.09986163 0.048957154 0.022598198 0.083539166 -0.09818893
-0.17206039 -0.12057183 0.0034504035 -0.0051234174 -0.07705604 0.006535252 -0.1632074 0.013401855
-0.012059745 -0.17550234 -0.056785747 0.048230603 -0.11817024 -0.053959947 -0.049267635 -0.1293547
-0.074451625 0.083505414 0.0611687 -0.17402516 -0.04612768 -0.04732938 -0.009928501 0.07344333
-0.011558354 0.072914794 -0.021475796 0.08250095 0.107788414 -0.09447981 -0.066721514 0.0886093
0.10240389 0.0345385 0.079504065 0.030210605 0.12217538 0.028854746 0.08846715 0.1338139
-0.0811409 -0.13095222 0.06983099 -0.061075 0.0075544314 -0.079911254 -0.06757648 0.007953748
0.039627288 -0.12625054 0.005406319 0.036506172 -0.03960615 -0.016783884 -0.04937999 0.15263808
0.08636488 0.17943786 0.14844936 0.055049714 0.03455694 0.112092406 0.17208722 0.12688978
0.16451433 -0.0013580114 0.08778086 -0.06730561 0.104120284 0.1441041 0.02401197 -0.0017725623
0.13689712 0.05754609 0.03237747 0.030122064 0.03022491 0.17577468 0.18241677 0.17464201
0.21685687 0.016378265 0.1119116 0.1591567 0.15989542 -0.063313186 0.03304622 0.036570113
0.050715182 -0.0031888003 -0.0860391 -0.025406824 -0.108758315 0.0024530375 -0.103394896 -0.06954973
00000000: 072a c73d ab3b e23d 5be1 e1bc 1c3c 7b3c
00000010: d43e a7bd c2d2 babd 548b 09be eb18 7b3d
00000020: 2c8f 1dbc d3f4 6d3d 0b3e 62bc 26e5 acbd
00000030: b1b4 4bbd 88bf 5ebc 5410 ca3c 07b0 dc39
00000040: 0a8a d8bd ce7d cabd 524e 0abe ee3c 313b
00000050: 3379 2fbd eabb fabd 83db 97bc 5766 84bc
00000060: b70d b0bc 8fe5 b63d 6b80 15bd 2391 893d
00000070: 51e3 fabc 7e1f 8ebc 9037 603d d651 023e
00000080: 148f 4b3c ad11 39bd d801 79bd 9c6a d93d
00000090: dca7 65bd 4363 09bd fe49 0a3e 04fd f53d
000000a0: 8b36 2d3d 483f 3f3d aad5 e93d da28 84bd
000000b0: a1b0 9d3d d4fc c3bb 369a c0bb 2bf7 04bc
000000c0: dff1 ffbc c2be da3c 88b7 733d bbc4 933d
000000d0: 1574 1c3c d4a4 34bd 44d1 263d 8191 f73d
000000e0: ca35 0a3e 0720 283e a8e6 8a3d 55ca 7dbd
000000f0: e019 783d c132 203e f5f1 133e 8072 e63d
00000100: 8e6c 04bc 1ffe 84bd 6a5f 373d 0941 da3d
00000110: cff3 be3c 44d8 013d 41b4 b93d be14 aebd
00000120: ac0c 423d ce59 89bd 625c c9bd dafe 24bd
00000130: e08a a7bd 541e c73c ac05 01be 787a fdbc
00000140: 8dd4 a8bd 455f 803d b612 1abe 5abe a53c
00000150: 9d26 00be d979 dabd 814d 50bc 66ff f0bd
00000160: 374d bfbc 6c22 19be 2c11 95bc 28b8 19be
00000170: a7e1 13be 0b87 cdbd 9402 50bd 8e12 d5bd
00000180: 447a e7bd ddd5 01be a189 d4bd 1cf8 10be
00000190: a2ac e13d bfdb 243e b880 163e af09 4ebd
000001a0: e6fa 2a3e e05e 343d 6c10 f93d 55ff 9d3d
000001b0: 09ab 753d f899 0e3e 7ae5 0cbd 7950 a13d
000001c0: 4ff7 8ebd ef89 073d 0d40 473d 80c9 95bd
000001d0: 4cf2 4b3d a73c 7cbc 7208 28bd 407c ccbc
000001e0: 6c47 79bd 4a8e 2c3c 08f0 d93d 9644 52bd
000001f0: e54e 16bd 397d 70bb 7021 5fbd baa9 1f3e
00000200: 4713 b13d 6d8f 813d a9dc 003e fc55 de3d
00000210: 6d98 423c 52dd 203e 1ac0 223c 3b66 883c
00000220: e695 fd3d 6535 c93d 80d8 69bd 0b63 1b3c
00000230: 9724 d6bb 0906 9f3d e19a df3d 4049 89bd
00000240: d9e8 fd3d f573 8fbd a506 9b3d 0bca c8bc
00000250: 4dc4 bbbd 74b7 813d bd24 adbd 1051 cabd
00000260: 2175 c83c b5b5 823d 5d9e 4d3d 4184 ccbd
00000270: 4c87 483d db1f b93c 9516 ab3d 4717 c9bd
00000280: 9930 30be 5dee f6bd 2a20 623b 57e2 a7bb
00000290: 8fcf 9dbd ab25 d63b d71f 27be 7493 5b3c
000002a0: 3d96 45bc e3b6 33be 2c98 68bd 748d 453d
000002b0: 3d03 f2bd 1b05 5dbd dccc 49bd 8f75 04be
000002c0: 187a 98bd e304 ab3d 088c 7a3d a733 32be
000002d0: 61f0 3cbd 74dc 41bd 27ab 22bc 7569 963d
000002e0: 405f 3dbc 5a54 953d 02ee afbc 42f6 a83d
000002f0: 2cc0 dc3d a17e c1bd 4aa5 88bd cb78 b53d
00000300: 21b9 d13d 3e78 0d3d 07d3 a23d 3b7c f73c
00000310: 1637 fa3d ca60 ec3c 442e b53d 8306 093e
00000320: 332d a6bd 5718 06be 8d03 8f3d c729 7abd
00000330: 2a8b f73b 83a8 a3bd 8a65 8abd 7050 023c
00000340: 3950 223d d247 01be 7e27 b13b 7f87 153d
00000350: 0f3a 22bd 5b7e 89bc ac42 4abd 284d 1c3e
00000360: 12e0 b03d 8fbe 373e 1c03 183e cf7b 613d
00000370: 948b 0d3d b490 e53d a237 303e 65ef 013e
00000380: 7276 283e 4dff b1ba 74c6 b33d 86d7 89bd
00000390: 043d d53d 0690 133e c0b4 c43c 5255 e8ba
000003a0: c22e 0c3e 73b5 6b3d 3d9e 043d 8cc2 f63c
000003b0: 3b9a f73c 47fe 333e 76cb 3a3e 5bd5 323e
000003c0: ba0f 5e3e b62b 863c e931 e53d f9f9 223e
000003d0: a0bb 233e 58aa 81bd 795b 073d 8bca 153d
000003e0: b9ba 4f3d 31fb 50bb 4535 b0bd f921 d0bc
000003f0: aebc debd 24c3 203b b4c0 d3bd 1770 8ebd

bias f4 [6]
-0.20215583 0.09581121 -0.06693693 -0.028237503 -0.00780429 -0.10157821
00000000: f001 4fbe ab38 c43d 3b16 89bd 5652 e7bc
00000010: 21bb ffbb 3d08 d0bd

weight f4 [16, 6, 5, 5]
0.015263761 -0.04503139 0.0061179567 0.030346144 0.05747218 -0.062222168 -0.011635586 -0.09214923
-0.061785378 0.010137618 0.04654983 0.042411786 -0.06905743 -0.050179735 0.0103449635 0.07822341
-0.008013167 0.007969378 0.059498943 -0.0037672692 -0.05703755 0.016992977 -0.0026616047 0.018366031
-0.020351142 -0.11586282 -0.041944966 0.033460062 0.055887025 0.04487963 0.006678829 -0.042294696
-0.043426596 0.032195494 0.06336119 0.028111817 -0.061603636 -0.13659112 -0.09172636 -0.12983419
-0.048087537 -0.06650618 -0.0044704974 -0.118334055 -0.010376284 0.040311955 -0.084044494 -0.09262112
-0.04548816 0.0064927475 0.12586744 0.00763273 -0.14915513 0.024991196 -0.057903647 0.06697171
-0.017424267 0.03136689 0.05452546 0.041397825 0.017381897 -0.0063123335 -0.043173235 0.1210069
0.100153536 0.05336453 -0.005973553 -0.010906194 0.039659116 -0.0786834 0.022103101 -0.0122654205
0.008796379 -0.07730632 -0.0837346 -0.081517115 -0.054041244 -0.07614541 -0.011181966 -0.01824022
-0.039409798 -0.06491141 -0.038541697 0.033078242 -0.09218828 -0.057250846 0.05214929 0.09442503
0.11184775 -0.05356601 -0.052404344 -0.0691816 0.09071824 0.000790049 0.065023884 -0.09364369
-0.039111003 -0.019966181 0.02080393 -0.08474786 0.07781401 -0.0075160363 0.010606326 0.048619464
0.14175276 -0.07534698 -0.11214047 -0.05695083 0.04621971 -0.089752115 0.063546695 -0.07294903
0.05764443 -0.06254903 -0.12995698 0.039936643 0.07952043 -0.011578264 -0.047897186 -0.03465828
0.03678063 0.047394168 0.046718575 -0.04325612 0.008225176 0.04060932 0.11868134 0.0028000153
-0.04268977 0.007128514 0.132437 0.13236547 0.102311864 -0.05901365 0.048635364 0.06347905
0.038388066 -0.027285095 -0.0071525048 0.012823711 0.02738139 0.13525924 -0.060336363 0.01099303
0.08219992 0.081373684 0.15351862 -0.06323271 0.012823685 0.07720911 0.042929634 -0.062815234
-0.02784284 -0.022150153 -0.027905582 0.0019383422 0.04444403 -0.046629097 0.090088286 0.056166857
-0.06466846 -0.0879461 -0.09168937 0.06875267 0.07678877 0.09253085 -0.009215844 0.054237828
0.01343985 -0.03330601 0.033118907 0.06590473 0.0037544938 -0.04690623 -0.0034170186 -0.21252696
-0.21517944 -0.22405621 -0.123555936 -0.27315125 -0.090738475 -0.06717355 -0.08694189 -0.19994585
-0.1985124 -0.12920505 -0.0737513 -0.16254109 -0.16548684 -0.13778424 -0.11385435 -0.08253855
-0.007298677 -0.06410389 -0.11711242 -0.031608384 -0.04331104 -0.12691922 -0.026039306 -0.024259372
-0.0641659 0.067211635 0.04896473 0.04100641 -0.011660123 -0.09027478 0.055820964 0.050591853
-0.10402788 -0.09793585 -0.051887974 -0.08156556 0.015465171 -0.10242649 -0.092762165 0.07128715
0.044194665 -0.06831167 -0.124982454 0.052252695 0.11762444 -0.0054301303 -0.04727446 -0.03413081
-0.057925988 0.08117498 0.043432105 -0.03674503 0.021563662 0.016526883 0.003690142 -0.06791027
0.07503452 -0.031733003 -0.03287231 -0.09725607 -0.05244695 -0.047413196 0.03097936 -0.0062696794
0.048039746 -0.020244202 0.04439025 0.04266213 -0.12072489 0.004605799 0.04182234 -0.04283269
0.06589819 0.07077544 0.10899971 0.018455988 0.06445879 -0.037098102 0.041666318 0.033037364
00000000: db14 7a3c d672 38bd 2479 c83b 7a98 f83c
00000010: f367 6b3d acdc 7ebd 2fa3 3ebc bcb8 bcbd
00000020: aa12 7dbd 4018 263c 09ab 3e3d fbb7 2d3d
00000030: fb6d 8dbd 4489 4dbd ec7d 293c 9833 a03d
00000040: a949 03bc fe91 023c 2ab5 733d 4ae4 76bb
00000050: 35a0 69bd db34 8b3c 516e 2ebb 5c74 963c
00000060: 70b7 a6bc 7c49 edbd 7cce 2bbd 6b0d 093d
00000070: cbe9 643d b4d3 373d 14da da3b 343d 2dbd
00000080: 16e0 31bd 6cdf 033d 83c3 813d c14a e63c
00000090: 1854 7cbd 8bde 0bbe 08db bbbd 41f3 04be
000000a0: 70f7 44bd 6434 88bd 407d 92bb 2059 f2bd
000000b0: 4a01 2abc 261e 253d 851f acbd 24b0 bdbd
000000c0: cb51 3abd 1dc1 d43b 65e3 003e fb1b fa3b
000000d0: 1fbc 18be 56ba cc3c 602c 6dbd 7728 893d
000000e0: 56bd 8ebc 917a 003d 1756 5f3d c490 293d
000000f0: 7b64 8e3c b1d7 cebb 6bd6 30bd 77d2 f73d
00000100: 4c1d cd3d c494 5a3d cbbd c3bb e5af 32bc
00000110: 9971 223d c324 a1bd 9011 b53c e7f4 48bc
00000120: b01e 103c c752 9ebd 0c7d abbd 72f2 a6bd
00000130: 5a5a 5dbd 20f2 9bbd 9134 37bc 846c 95bc
00000140: 2b6c 21bd 46f0 84bd e6dd 1dbd 0d7d 073d
00000150: 35cd bcbd dd7f 6abd 7e9a 553d e961 c13d
00000160: 6f10 e53d 0868 5bbd f0a5 56bd 15af 8dbd
00000170: 7cca b93d 4a1b 4f3a 3e2b 853d 43c8 bfbd
00000180: dc32 20bd 1e90 a3bc 016d aa3c 4990 adbd
00000190: f45c 9f3d 1549 f6bb 28c6 2d3c 3425 473d
000001a0: a327 113e 844f 9abd e7a9 e5bd 4645 69bd
000001b0: e150 3d3d f5cf b7bd c524 823d 4d66 95bd
000001c0: 911c 6c3d b519 80bd 7113 05be 9b94 233d
000001d0: 9bdb a23d c2b2 3dbc d72f 44bd d7f5 0dbd
000001e0: 49a7 163d 6320 423d fa5b 3f3d 542d 31bd
000001f0: e3c2 063c f555 263d 340f f33d 7680 373b
00000200: 78db 2ebd 4f96 e93b 919d 073e d08a 073e
00000210: e288 d13d 4cb8 71bd e035 473d 4e01 823d
00000220: ce3c 1d3d fe84 dfbc 8f5f eabb 8b1a 523c
00000230: f04e e03c 6681 0a3e 4323 77bd 1c1c 343c
00000240: 6f58 a83d 3fa7 a63d fc33 1d3e 2780 81bd
00000250: 6f1a 523c cf1f 9e3d fcd6 2f3d 46a5 80bd
00000260: ab16 e4bc 3d74 b5bc 3f9a e4bc f90f fe3a
00000270: f10a 363d 27fe 3ebd 3580 b83d 380f 663d
00000280: e670 84bd 161d b4bd a3c7 bbbd 33ce 8c3d
00000290: 6e43 9d3d d080 bd3d 0dfe 16bc 7c28 5e3d
000002a0: d132 5c3c e26b 08bd b1a7 073d 0ff9 863d
000002b0: f40d 763b bf20 40bd 0ff0 5fbb aba0 59be
000002c0: 0058 5cbe fe6e 65be e50a fdbd 7bda 8bbe
000002d0: 18d5 b9bd 4992 89bd 970e b2bd 9bbe 4cbe
000002e0: d646 4bbe 544e 04be ec0a 97bd 2c71 26be
000002f0: 6275 29be 5017 0dbe 782c e9bd f909 a9bd
00000300: be29 efbb e648 83bd a3d8 efbd cb77 01bd
00000310: eb66 31bd 1df7 01be 6250 d5bc 97bb c6bc
00000320: 6969 83bd 41a6 893d 3e8f 483d 56f6 273d
00000330: 1a0a 3fbc fce1 b8bd 86a4 643d 6739 4f3d
00000340: 920c d5bd 9792 c8bd 7c88 54bd d80b a7bd
00000350: a161 7d3c fbc4 d1bd 17fa bdbd fffe 913d
00000360: 7705 353d fde6 8bbd cdf6 ffbd ec06 563d
00000370: 15e5 f03d 3cef b1bb dda2 41bd c0cc 0bbd
00000380: cd43 6dbd 113f a63d dde5 313d f581 16bd
00000390: 47a6 b03c 6363 873c 4fd6 713b 8a14 8bbd
000003a0: b3ab 993d 77fa 01bd 1ea5 06bd 312e c7bd
000003b0: 9dd2 56bd 5734 42bd 6dc8 fd3c e271 cdbb
000003c0: 53c5 443d 2bd7 a5bc 8dd2 353d 7cbe 2e3d
000003d0: 9c3e f7bd 3eec 963b e74d 2b3d 5571 2fbd
000003e0: a1f5 863d b7f2 903d 3d3b df3d 0331 973c
000003f0: f802 843d 2ef4 17bd 4daa 2a3d 3052 073d

bias f4 [16]
0.01120535 0.07076491 -0.054023646 -0.025536446 0.051726967 0.0757222 0.12522508 0.1015595
0.10474999 0.06633499 0.047655724 0.013899055 0.08418916 0.029814433 0.054289304 -0.12710258
00000000: a596 373c 31ed 903d e647 5dbd cf31 d1bc
00000010: a8df 533d 3e14 9b3d 013b 003e 6dfe cf3d
00000020: 2a87 d63d a4da 873d a632 433d ddb8 633c
00000030: 5e6b ac3d 663d f43c 765e 5e3d 2e27 02be

weight f4 [120, 400]
0.024874264 0.023448873 0.084517434 -0.012003787 0.07351906 0.09910098 0.057133667 0.04483582
0.045433573 0.08182805 -0.05240699 -0.03263988 -0.056827545 0.033955913 -0.01327489 -0.10586027
-0.0040138583 -0.0349386 -0.043144815 0.033863705 -0.052064195 -0.018449597 -0.026648358 -0.05468574
-0.02328826 -0.049672812 -0.030638546 -0.06647613 -0.029387526 -0.013142999 -0.0026849897 0.07188004
0.052348595 0.038522817 -0.06814068 0.075185925 0.08117943 0.04693135 0.06109272 -0.039532825
0.068856835 0.0893545 0.0118939215 -0.06357044 0.039219968 0.042599317 0.059494063 0.017065229
-0.031677153 0.02577294 -0.07560504 -0.07101825 -0.15029466 -0.111111976 -0.07021318 -0.03420317
-0.0242495 -0.0131182 -0.035325147 -0.056972586 -0.110431194 -0.043963764 -0.114699244 -0.1351704
-0.11746922 -0.057978384 -0.029572103 -0.09469971 -0.124814086 -0.07817813 0.00692048 -0.03403842
-0.011627735 -0.10516782 -0.064920776 0.0073305448 0.0012607957 0.020367926 0.050614655 0.07603789
0.018661192 -0.07377764 -0.04915699 -0.006223236 -0.019055486 -0.030462977 -0.11495766 -0.10304655
-0.06005165 -0.025983132 -0.0327779 -0.08275549 -0.042817537 -0.008398217 -0.027607 -0.025380602
-0.022781836 0.01042717 0.05264008 -0.031569667 -0.0058486364 -0.13202609 -0.14760502 -0.06672643
-0.0014193829 -0.031922895 -0.06529813 -0.017968992 0.0039437297 -0.02048286 -0.07615437 -0.040101714
-0.06304339 -0.11661978 -0.055187635 -0.009695749 -0.036359135 0.051984377 -0.014612022 -0.064032786
0.029929435 0.025612138 0.05703994 0.04848252 0.011884253 0.07509299 -0.03441417 -0.08535339
-0.047507435 -0.05156688 0.08934328 -0.021154283 -0.09430819 -0.031896975 -0.053141724 0.02228564
-0.0031761862 -0.025373336 -0.109157264 -0.07064651 -0.01509948 0.043296378 0.019623281 -0.064134404
-0.06259749 -0.00094319077 0.021733783 -0.03865759 -0.09342477 -0.061523687 -0.024281422 -0.055259913
0.006573002 -0.00029284714 -0.048553143 -0.022018552 -0.015827904 0.08211953 0.047195848 -0.030301685
0.038865678 0.048041567 0.08332149 0.061439883 0.015621039 -0.034852818 0.024036275 -0.0050104675
0.033162013 -0.009884092 -0.06560528 -0.008173423 -0.0035035477 9.3386174e-05 0.02686787 -0.002085376
-0.030432282 0.03053454 0.03270713 0.024066446 0.04231587 0.0750405 -0.034417715 -0.0030705219
-0.055741098 0.10865157 0.055256654 -0.039140936 0.01731832 0.03389711 0.041599 0.031441115
0.03718881 0.008298459 0.09728107 0.022692606 0.029054487 0.039984353 0.049268015 0.111486286
7.276108e-05 0.062222444 -0.045686375 -0.072045036 -0.06625764 -0.0047849487 -0.046071764 -0.005529376
-0.107120395 0.032639407 0.012660832 -0.026114056 -0.07141096 -0.035392262 0.0019791385 -0.046626627
-0.111810096 -0.0370498 0.0016708398 0.0061235614 -0.012594061 0.006401847 0.033939347 0.02309587
0.09025996 0.084346436 0.020482915 -0.0088104755 -0.0044697435 0.04454894 0.044199873 0.052244015
-0.024773719 -0.003928658 0.025809526 0.021737004 -0.02176617 0.060532082 0.035295878 -0.0030659835
-0.0065992055 0.030941157 0.026931735 0.001307967 0.010121218 -0.016660603 -0.0031415971 -0.04040003
-0.07835 0.0456748 0.0071142195 0.010621461 -0.03397207 -0.08413267 -0.026601454 -0.109896205
00000000: 1dc5 cb3c da17 c03c 7a17 ad3d 88ab 44bc
00000010: 2991 963d 74f5 ca3d fe04 6a3d c4a5 373d
00000020: 8e18 3a3d 7795 a73d b6a8 56bd 65b1 05bd
00000030: 00c4 68bd 5b15 0b3d ed7e 59bc 45cd d8bd
00000040: af86 83bb c71b 0fbd 9eb8 30bd abb4 0a3d
00000050: 4441 55bd 9c23 97bc a84d dabc 28fe 5fbd
00000060: 05c7 bebc b875 4bbd b0fd fabc a324 88bd
00000070: 1cbe f0bc bc55 57bc a7f6 2fbb d835 933d
00000080: 7b6b 563d 1aca 1d3d 578d 8bbd 14fb 993d
00000090: 6741 a63d 163b 403d 5c3c 7a3d 2ced 21bd
000000a0: d004 8d3d 7eff b63d b9de 423c 3831 82bd
000000b0: 1ea5 203d 9f7c 2e3d 0cb0 733d 61cc 8b3c
000000c0: e7bf 01bd c621 d33c d1d6 9abd 0472 91bd
000000d0: d8e6 19be ad8e e3bd edcb 8fbd a018 0cbd
000000e0: e3a6 c6bc b8ed 56bc 1ab1 10bd 165c 69bd
000000f0: c029 e2bd 5913 34bd 70e7 eabd 1c6a 0abe
00000100: b493 f0bd be7a 6dbd 3241 f2bc ecf1 c1bd
00000110: 879e ffbd db1b a0bd 32c5 e23b df6b 0bbd
00000120: 4182 3ebc 3a62 d7bd 2ff5 84bd 1135 f03b
00000130: 4941 a53a a3da a63c 5051 4f3d c1b9 9b3d
00000140: 5bdf 983c bb18 97bd d758 49bd 4aec cbbb
00000150: 401a 9cbc 7e8d f9bc ec6e ebbd 120a d3bd
00000160: b8f8 75bd 94da d4bc 1f42 06bd b67b a9bd
00000170: 7161 2fbd ad98 09bc 1328 e2bc fbea cfbc
00000180: f9a0 babc b9d6 2a3c 209d 573d 324f 01bd
00000190: eba5 bfbb d931 07be c525 17be dea7 88bd
000001a0: 960a baba 95c1 02bd 07bb 85bd b533 93bc
000001b0: 673a 813b accb a7bc d3f6 9bbd b241 24bd
000001c0: e51c 81bd 5ad6 eebd 6e0c 62bd ebda 1ebc
000001d0: 51ed 14bd 92ed 543d 4367 6fbc 9f23 83bd
000001e0: 932e f53c 8cd0 d13c b6a2 693d 9b95 463d
000001f0: 2bb6 423c 5bca 993d dff5 0cbd c2cd aebd
00000200: 2897 42bd cb37 53bd 9cf9 b63d bf4b adbc
00000210: a724 c1bd 67a6 02bd 23ab 59bd 6090 b63c
00000220: 9027 50bb bedb cfbc d88d dfbd 1eaf 90bd
00000230: cf63 77bc 8b57 313d 01c1 a03c e658 83bd
00000240: 1d33 80bd 7640 77ba 0c0b b23c 6c57 1ebd
00000250: 7c55 bfbd 4300 7cbd d5e9 c6bc 3858 62bd
00000260: 5662 d73b 4789 99b9 a9df 46bd 4060 b4bc
00000270: 85a9 81bc 492e a83d 6f50 413d 3d3b f8bc
00000280: 9e31 1f3d 3cc7 443d 75a4 aa3d 63a8 7b3d
00000290: 63ef 7f3c d4c1 0ebd b9e7 c43c d92e a4bb
000002a0: e4d4 073d e3f0 21bc 105c 86bd d2e9 05bc
000002b0: c79b 65bb 52d8 c338 021a dc3c ceaa 08bb
000002c0: 1f4d f9bc 9223 fa3c e9f7 053d ff26 c53c
000002d0: 6853 2d3d d5ae 993d 97f9 0cbd cf3a 49bb
000002e0: c750 64bd b784 de3d cd54 623d 3f52 20bd
000002f0: 26df 8d3c b2d7 0a3d b763 2a3d 66c8 003d
00000300: 4b53 183d 43f6 073c 4c3b c73d d8e5 b93c
00000310: ad03 ee3c a2c6 233d 42cd 493d ec52 e43d
00000320: 4f97 9838 f6dc 7e3d a321 3bbd 598c 93bd
00000330: 16b2 87bd 0fcb 9cbb bfb5 3cbd c52f b5bb
00000340: f061 dbbd e6b0 053d 616f 4f3c 25ed d5bc
00000350: e93f 92bd 7af7 10bd 6fb4 013b 90fb 3ebd
00000360: b1fc e4bd 88c1 17bd 1500 db3a 28a8 c83b
00000370: 5257 4ebc 96c6 d13b fc03 0b3d 8d33 bd3c
00000380: 37da b83d d3bd ac3d c9cb a73c d059 10bc
00000390: ed76 92bb f378 363d ed0a 353d d2fd 553d
000003a0: 41f2 cabc f9bb 80bb 806e d33c cd11 b23c
000003b0: f84e b2bc 7df0 773d 6992 103d abee 48bb
000003c0: 263e d8bb 4f78 fd3c f19f dc3c 1770 ab3a
000003d0: 77d3 253c d17b 88bc 41e3 4dbb 807a 25bd
000003e0: f775 a0bd 8015 3b3d 661e e93b a305 2e3c
000003f0: 4c26 0bbd c04d acbd 4beb d9bc 4311 e1bd

bias f4 [120]
0.027743744 -0.028232103 0.14992896 -0.00032654987 0.013403011 -0.026085958 0.029655708 -0.0013595807
-0.053936396 -0.0049468274 0.13155535 -0.0019142221 -0.0060565174 -0.0095966775 0.08222301 0.012259132
0.04542021 0.055353492 -0.018834507 0.03060551 -0.025421932 0.021767408 0.09238261 0.11046865
0.11232431 0.10736945 -0.004722298 -0.011793054 -0.055258766 0.15098166 0.070089765 0.05947769
0.03830872 0.0017271305 0.043982577 -0.075793065 -0.029681105 0.13781019 -0.030982783 -0.00062885863
-0.02281554 -0.008764156 0.006837159 -0.0048735915 -6.77228e-14 -0.059666127 -0.00085093896 -0.029564194
0.1300555 0.016756035 -0.028775008 0.06495381 -0.009125976 0.017714655 -0.00010634888 0.035020407
-0.040307965 0.07905041 0.012200682 -0.052302297 0.028209442 0.030597083 0.018763818 0.154008
0.117693886 -0.05787278 0.1156395 -0.027240632 0.103717074 0.038092647 -0.054708123 0.10698104
-0.008502462 -0.029651565 -0.024262639 -0.025293078 0.08546151 -8.84555e-15 0.076572336 0.044766545
0.18065575 0.07777875 0.120417066 0.0958104 -0.02651212 -0.007842713 0.0035823798 0.13294378
-0.0008718818 0.068967134 0.083568305 -0.02027311 0.1322224 -0.021480808 0.0879119 0.029047672
0.008192141 -0.13820511 -0.015233723 0.062535495 0.07035097 0.0014976743 -0.00033488928 0.003439334
0.046621464 0.031816877 -0.0159331 -0.02407502 0.09848434 -0.07769837 0.013126356 -0.05787199
0.09697709 -0.00016817973 -0.028704481 -0.040299077 -0.028251257 -0.044559937 0.046998978 0.015509261
00000000: d946 e33c 0347 e7bc fa86 193e c834 abb9
00000010: 4d98 5b3c 38b2 d5bc 87f0 f23c f533 b2ba
00000020: 69ec 5cbd ff18 a2bb 72b6 063e a3e6 faba
00000030: c075 c6bb 623b 1dbc 8a64 a83d 87da 483c
00000040: 8b0a 3a3d 58ba 623d d34a 9abc 68b8 fa3c
00000050: a841 d0bc 9051 b23c 1833 bd3d 633d e23d
00000060: 4a0a e63d 84e4 db3d 82bd 9abb a737 41bc
00000070: 0457 62bd f09a 1a3e 398b 8f3d e19e 733d
00000080: 9be9 1c3d e260 e23a 1327 343d 6539 9bbd
00000090: ca25 f3bc 1d1e 0d3e 9bcf fdbc fdd9 24ba
000000a0: a8e7 babc 8997 0fbc 3f0a e03b a6b2 9fbb
000000b0: 897f 98a9 7864 74bd 8c11 5fba 9c30 f2bc
000000c0: 452d 053e f443 893c 91b9 ebbc 8106 853d
000000d0: 1e85 15bc 531e 913c 9f07 dfb8 8f71 0f3d
000000e0: f719 25bd 2ee5 a13d 5fe5 473c ef3a 56bd
000000f0: 7d17 e73c bca6 fa3c 94b6 993c 46b4 1d3e
00000100: 7e09 f13d 020c 6dbd 67d4 ec3d bf27 dfbc
00000110: 9e69 d43d 0907 1c3d a015 60bd e018 db3d
00000120: e94d 0bbc d7e7 f2bc 71c2 c6bc 6e33 cfbc
00000130: 7206 af3d e658 1fa8 f5d1 9c3d 205d 373d
00000140: d2fd 383e 774a 9f3d 399d f63d 3e38 c43d
00000150: f22f d9bc b97e 00bc 5cc6 6a3b 6a22 083e
00000160: ff8e 64ba a43e 8d3d dc25 ab3d cb13 a6bc
00000170: 4f65 073e 85f8 afbc 270b b43d 62f5 ed3c
00000180: 5438 063c a485 0dbe de96 79bc 9c12 803d
00000190: 2b14 903d 9c4d c43a 1494 afb9 7366 613b
000001a0: 26f6 3e3d 6a52 023d 2286 82bc fa38 c5bc
000001b0: 28b2 c93d 5320 9fbd ed0f 573c 2e0b 6dbd
000001c0: ed9b c63d 6759 30b9 a925 ebbc a510 25bd
000001d0: 2e6f e7bc 7b84 36bd 0082 403d 8e1a 7e3c

weight f4 [84, 120]
-0.00012956327 0.0074128523 0.012956 -4.5411873e-08 -0.009487591 -0.00074374693 0.023946445 4.195e-42
-0.010189263 -2.102e-40 -0.0020509928 6.1944847e-06 3.3630017e-06 0.0068587544 -3.7503298e-05 -0.0054874546
-0.004395397 -0.00019941822 -0.0041404287 5.8159115e-33 -4.1822e-41 -0.004108164 0.0018936639 -0.018825106
-0.0007928065 -0.00021176937 3.105109e-12 3.33704e-40 -0.052704778 -0.030708013 -0.011693101 -0.005399939
0.027065953 1.1384188e-06 -7.655858e-05 -0.004166849 -0.0065020495 -0.018416725 -0.0025444212 2.4988e-40
-9.823933e-06 -0.00897707 0.007863366 5.502621e-16 -2.65428e-40 -6.6254245e-07 0.025237294 -5.8325975e-07
-0.014141001 -0.033516977 -0.0050165635 -0.00037521604 -0.00027005977 -0.009995878 2.46104e-40 -0.0029987392
-0.029194368 -0.0018473021 -0.056325994 -8.778476e-12 -0.007706981 0.00018399775 -0.013372001 -3.6973704e-06
-0.00040764498 -0.000509892 -0.007811431 2.2582065e-20 -0.00026326443 -3.159196e-07 2.849765e-35 -2.8905406e-05
4.239046e-35 -0.005688246 -6.3003203e-09 -0.0032093315 0.008976241 -3.15352e-40 -0.004549745 -0.00089227594
-0.0008467699 -0.030058188 0.0015625226 -5.5922906e-06 1.78822e-40 -3.7159993e-12 0.0009468058 0.001363008
-1.6566161e-06 -3.4532583e-08 -0.00034725125 2.71333e-40 0.0025778615 3.1042e-41 -2.024874e-07 -0.00067276397
0.020743506 0.004911485 6.9865e-41 -5.6480043e-05 0.0011543876 -0.014308151 -3.8927e-41 0.018052721
-0.00024579692 -0.0007519251 -8.874e-41 2.3684114e-21 -9.455829e-05 1.1465516e-05 0.00016844073 -3.52747e-40
-0.00044812428 -4.0288564e-10 -0.0062660784 6.0543673e-05 -5.57319e-10 -0.019215694 -0.00014418043 -0.010658433
-0.018264288 -0.1137665 0.13661498 0.0017264716 -0.05033531 0.15852676 0.07663557 -0.000665135
-0.047494255 -0.008096172 0.02374535 0.008819484 -0.016226107 -0.09427771 0.093468614 0.027119227
-0.03334113 0.047111407 -0.06878686 0.05086038 0.0024974148 0.048208322 -0.025610192 0.08415299
-0.02016728 0.07970944 0.00038584048 -0.0069968402 -0.094569705 0.039694324 0.051646642 -0.032064643
0.0014536029 -0.016903518 0.10672734 -0.19387697 -0.07343502 0.07018343 -0.040776346 4.387135e-07
0.020915765 0.047820494 0.024533357 -0.0018341446 3.656497e-24 -0.08257116 0.05368783 0.018984748
0.120630145 -0.15062657 0.02443227 0.034553878 -0.015440732 -0.039626285 -7.312429e-05 0.0790991
0.017964661 0.062840626 0.08169781 -0.039863396 0.054455016 -0.0033592477 -0.084492326 0.03733816
0.10694755 -0.045210667 0.0054934416 0.012951816 0.054364644 0.03750209 0.021836516 0.10756763
0.0002127503 -0.13153696 -0.0074902824 0.050318222 0.050695445 -2.0366e-41 0.08527173 -0.10472374
0.13215949 0.017614577 0.110771544 0.111405686 0.0068249423 0.049155276 -0.0006938559 0.059927627
-0.017526556 -0.043998398 0.082727924 -0.013303269 0.035621706 -0.0017443828 -0.010040796 -0.019430231
-0.11910603 -0.0059502446 -0.023079285 0.13695222 0.022120968 -0.030520717 -4.4459674e-07 0.020739885
0.0838402 0.10706714 -0.018118804 0.027857605 0.113384716 0.11255379 -0.026687535 -0.060164265
0.07217905 -0.0023211816 -0.0054709557 0.05917021 -0.0018872102 -0.06284285 0.095733576 -0.09251429
-0.005322489 -0.010242736 0.0044030743 2.22299e-40 -0.028099021 -0.018687528 -0.003153915 -6.8542e-41
-0.03538525 2.74485e-40 -0.00995384 3.4945e-40 3.2282907e-07 -0.0112902755 -0.0022286347 -0.009726245
00000000: 60db 07b9 83e7 f23b 6745 543c e20a 43b3
00000010: d771 1bbc 03f8 42ba 562b c43c b20b 0000
00000020: def0 26bc f449 0280 f369 06bb 38da cf36
00000030: eeaf 6136 67bf e03b dc4c 1db8 1bd0 b3bb
00000040: 4307 90bb ec1a 51b9 6fac 87bb 6195 f109
00000050: 9574 0080 c79d 86bb d134 f83a 1c37 9abc
00000060: 58d4 4fba 680e 5eb9 ac80 5a2c 3ba2 0300
00000070: f7e0 57bd 5f8f fbbc 6c94 3fbc f9f1 b0bb
00000080: 6bb9 dd3c c6cb 9835 138e a0b8 108a 88bb
00000090: 250f d5bb acde 96bc 4ec0 26bb 90b8 0200
000000a0: 79d1 24b7 9014 13bc 59d5 003c 2d9a 1e26
000000b0: e8e3 0280 92d9 31b5 71be ce3c 4e91 1cb5
000000c0: a8af 67bc 1949 09bd fc61 a4bb a5b8 c4b9
000000d0: cf96 8db9 c0c5 23bc 0aae 0200 7f86 44bb
000000e0: 0729 efbc 2c21 f2ba 16b6 66bd be6e 1aad
000000f0: d88a fcbb 85ef 4039 3d16 5bbc 5720 78b6
00000100: 2fb9 d5b9 46aa 05ba 08f7 ffbb 1548 d51e
00000110: c106 8ab9 a99b a9b4 fe84 1706 e379 f2b7
00000120: e762 6106 7764 babb 347a d8b1 a653 52bb
00000130: 1511 133c 136f 0380 0716 95bb a0e7 69ba
00000140: c4f9 5dba 973c f6bc 8fcd cc3a 69a5 bbb6
00000150: 7cf2 0100 bfbe 82ac 1033 783a f6a6 b23a
00000160: e558 deb5 fa50 14b3 460f b6b9 5ef4 0200
00000170: 57f1 283b 8856 0000 506b 59b4 6d5c 30ba
00000180: 49ee a93c 86f0 a03b c1c2 0000 fce4 6cb8
00000190: d24e 973a bc6c 6abc 836c 0080 4de3 933c
000001a0: 4ede 80b9 d71c 45ba 5ff7 0080 bdf3 321d
000001b0: 984d c6b8 045c 4037 779f 3039 51d7 0380
000001c0: 39f2 eab9 1d7d ddaf ad53 cdbb 46f0 7d38
000001d0: d731 19b0 3b6a 9dbc 242f 17b9 b5a0 2ebc
000001e0: fd9e 95bc 69fe e8bd cce4 0b3e c64a e23a
000001f0: 662c 4ebd d754 223e 1cf3 9c3d 745c 2eba
00000200: 5689 42bd cea5 04bc 9c85 c23c 997f 103c
00000210: 9dec 84bc ac14 c1bd 796c bf3d 2429 de3c
00000220: b590 08bd e4f7 403d 20e0 8cbd f952 503d
00000230: abab 233b 1776 453d 77cc d1bc 6758 ac3d
00000240: da35 a5bc b43e a33d a24a ca39 c045 e5bb
00000250: c3ad c1bd 8496 223d 6e8b 533d 3756 03bd
00000260: d286 be3a 3f79 8abc dd93 da3d af87 46be
00000270: 1a65 96bd 55bc 8f3d 1905 27bd 5388 eb34
00000280: 8a57 ab3c 6cdf 433d 2efa c83c ae67 f0ba
00000290: 3174 8d18 111b a9bd c5e7 5b3d e785 9b3c
000002a0: f00c f73d da3d 1abe 2f26 c83c 5e88 0d3d
000002b0: 20fb 7cbc 2c4f 22bd 4e5a 99b8 b5fe a13d
000002c0: a02a 933c 96b2 803d 2e51 a73d cd47 23bd
000002d0: 390c 5f3d d326 5cbb 500a adbd e6ef 183d
000002e0: 5107 db3d d22e 39bd 5402 b43b db33 543c
000002f0: 76ad 5e3d cb9b 193d 7ee2 b23c 6b4c dc3d
00000300: b915 5f39 a0b1 06be 0b71 f5bb 7b1a 4e3d
00000310: 07a6 4f3d c638 0080 f2a2 ae3d 6679 d6bd
00000320: d154 073e 724c 903c 31dc e23d aa28 e43d
00000330: c4a3 df3b 0b57 493d e2e3 35ba ac76 753d
00000340: da93 8fbc aa37 34bd 426d a93d f4f5 59bc
00000350: 11e8 113d c6a3 e4ba 2782 24bc 262c 9fbc
00000360: dded f3bd 45fa c2bb c510 bdbc 343d 0c3e
00000370: 0837 b53c 9506 fabc e9b0 eeb4 b1e6 a93c
00000380: 69b4 ab3d 0446 db3d e36d 94bc a235 e43c
00000390: 3f36 e83d 9a82 e63d d19f dabc ce6e 76bd
000003a0: 9cd2 933d f71e 18bb b445 b3bb 765c 723d
000003b0: 445c f7ba c1b3 80bd f70f c43d 2278 bdbd
000003c0: 4668 aebb 26d1 27bc aa47 903b ae6b 0200
000003d0: eb2f e6bc 9616 99bc eab1 4ebb 11bf 0080
000003e0: 20f0 10bd 27fd 0200 6e15 23bc 20ce 0300
000003f0: 4a51 ad34 d9fa 38bc 490e 12bb d45a 1fbc

bias f4 [84]
-0.023241699 0.12927426 -0.061081994 -0.08090532 -0.082888655 -0.07007096 0.15140218 0.08227783
-0.002814936 -8.907778e-09 0.026104711 -0.025536887 -0.011310172 0.12570703 -7.127127e-08 -0.047081932
0.08085544 -0.00647639 0.16748032 0.061250757 0.05122794 -0.06911087 0.13124348 0.017985608
0.1038556 0.08087135 0.09833315 0.14876813 -0.021484202 -0.0853357 0.031795446 -0.041316234
0.059832424 -0.0024405255 -0.0025627913 0.041318096 0.16213049 0.022598572 0.012654676 0.04492912
-0.024799706 0.048555452 -0.022804251 0.07287863 0.019250559 -0.04126261 -0.021427566 0.010594813
0.069322996 -0.03774858 -1.531678e-10 -0.04105672 0.1741827 0.15400651 0.0702384 -0.030653816
0.0709794 0.067081064 0.08648818 -0.08584352 0.049376503 0.12870228 0.17137723 0.0006166625
0.14030129 0.06569113 0.013139956 0.11693317 0.13740702 0.103251554 0.11016955 0.029066
0.0012080168 0.073056206 0.0955024 0.030412795 0.009892441 0.08918806 0.017006382 0.010138151
-0.02334239 0.06715115 0.09329886 0.10296663
00000000: 6065 bebc 7960 043e 1d31 7abd b0b1 a5bd
00000010: 87c1 a9bd 5d81 8fbd 2c09 1b3e 4781 a83d
00000020: ca7a 38bb d208 19b2 8cd9 d53c bc32 d1bc
00000030: 4d4e 39bc 58b9 003e cc0d 99b3 fcd8 40bd
00000040: 8997 a53d e637 d4bb f67f 2b3e 13e2 7a3d
00000050: 63d4 513d 008a 8dbd b164 063e 8e56 933c
00000060: 3fb2 d43d e19f a53d e462 c93d ac56 183e
00000070: a3ff afbc 7cc4 aebd f13b 023d 363b 29bd
00000080: d812 753d 39f1 1fbb 81f4 27bb 2a3d 293d
00000090: 8905 263e a420 b93c 8f55 4f3c 9907 383d
000000a0: c128 cbbc 15e2 463d fbcf babc 6441 953d
000000b0: 59b3 9d3c fc02 29bd dd88 afbc de95 2d3c
000000c0: 37f9 8d3d 419e 1abd e768 28af 172b 28bd
000000d0: f35c 323e e2b3 1d3e 26d9 8f3d b61d fbbc
000000e0: a65d 913d cc61 893d b720 b13d bace afbd
000000f0: 043f 4a3d 88ca 033e 837d 2f3e 85a7 213a
00000100: 24ab 0f3e 1289 863d f848 573c a87a ef3d
00000110: 6db4 0c3e 8d75 d33d 93a0 e13d d21b ee3c
00000120: 5156 9e3a 7e9e 953d c396 c33d 4124 f93c
00000130: e813 223c 3ba8 b63d f850 8b3c 7d1a 263c
00000140: 8a38 bfbc 8b86 893d 7913 bf3d 2be0 d23d

weight f4 [1, 84]
-0.022099786 0.10048179 0.021367136 0.006923366 -0.12303975 -0.13066731 0.067018166 -0.054923855
-0.004698606 0.000517924 0.06483412 -0.04767839 -0.021514082 0.0154851405 9.834899e-05 -0.064869784
0.10779502 -0.20847018 0.08906212 -0.10449333 -0.11752115 0.007423293 0.08328583 -0.094655186
0.048006147 0.061715774 0.12275461 0.09562521 -0.047294836 -0.12844288 -0.10691337 -0.042862713
-0.12453458 0.002751039 0.0030198977 -0.09997087 0.09863161 -0.083226 -0.08746055 -0.068673395
-0.050281342 0.035980728 -0.07183767 -0.117129505 -0.09310481 -0.13657969 0.12560982 0.051458303
-0.1143358 -0.07987229 -4.8039042e-23 -0.10706547 0.11818939 0.11288893 0.030805126 -0.08521337
0.067546085 0.140415 -0.0649369 -0.003683939 0.09463134 0.15806463 0.051756106 -0.10095587
0.0916829 0.03614443 0.12607911 0.06019384 0.09659913 0.110200986 0.055872083 0.052723434
-0.15921889 -0.12457943 0.124258496 -0.064532235 -0.053847928 0.023264252 0.0003153317 0.10988263
0.0011090441 0.12276278 -0.12545289 0.047262117
00000000: 9c0a b5bc 66c9 cd3d 220a af3c 67dd e23b
00000010: 44fc fbbd a7cd 05be d240 893d d6f7 60bd
00000020: c4f6 99bb 4bc5 073a c0c7 843d 6a4a 43bd
00000030: 4d3e b0bc 63b5 7d3c b640 ce38 73da 84bd
00000040: a3c3 dc3d 3579 55be 3366 b63d 9900 d6bd
00000050: eeae f0bd 183f f33b c391 aa3d 94da c1bd
00000060: 18a2 443d aec9 7c3d c566 fb3d 26d7 c33d
00000070: 3bb8 41bd 8886 03be 66f5 dabd d090 2fbd
00000080: fc0b ffbd c74a 343b 7ae9 453b 87bd ccbd
00000090: 5fff c93d 6572 aabd 841e b3bd a3a4 8cbd
000000a0: cff3 4dbd 8760 133d a11f 93bd 98e1 efbd
000000b0: bcad bebd 8cdb 0bbe dc9f 003e f1c5 523d
000000c0: e328 eabd 1594 a3bd 744d 689a 2445 dbbd
000000d0: 470d f23d 5032 e73d 085b fc3c 5984 aebd
000000e0: 9a55 8a3d f3c8 0f3e a3fd 84bd 3e6e 71bb
000000f0: 13ce c13d b2db 213e 36fe 533d f3c1 cebd
00000100: 3fc4 bb3d 2f0c 143d e21a 013e d18d 763d
00000110: c4d5 c53d 0eb1 e13d 20da 643d 87f4 573d
00000120: 470a 23be 8023 ffbd 3d7b fe3d 7a29 84bd
00000130: a58f 5cbd ac94 be3c 1b53 a539 250a e13d
00000140: 585d 913a 0d6b fb3d b976 00be ec95 413d
